kolam_dataset/05_trained_models/balanced_training/best_model_balanced.pth (torch, 194228 bytes, 48 tensors)

model.0.weight f4 [128, 26]
0.07907977 -0.057727158 -0.049353994 -0.0042999936 -0.002162991 0.020094346 -2.655076e-38 4.73949e-40
-5.082765e-39 -6.093911e-39 -3.337906e-39 0.013443611 0.12604748 -0.054289203 0.0022363723 -0.1197145
0.010616967 0.0060022306 -0.002626767 0.0056505464 0.0019362404 0.0006737221 0.015999822 -0.022491954
0.18432482 0.0006312345 0.13920963 0.033424057 -0.05755857 0.0076529086 -0.03896509 -0.025050638
-1.97516e-40 -4.29837e-39 6.843825e-39 6.055224e-39 1.572625e-39 -0.16623032 -0.060475122 0.097032264
-0.010081271 -0.11635877 -0.070686914 -0.03666507 0.02115401 0.070618875 -0.0021084547 -0.00095072517
-0.013182223 -0.12718882 -0.17894652 -0.00047031694 0.30878618 -0.13558055 -0.1488223 0.0091562085
-0.018654304 0.034684382 -2.862453e-39 4.78525e-40 -6.447342e-39 5.33497e-40 6.58552e-39 -0.009103425
-0.10855376 0.034004577 -0.029989837 0.07486816 -0.03409035 0.062153734 -0.02529524 0.06276035
-0.0040510315 -0.0041206446 -0.042919334 0.06681706 0.0022682846 0.006079516 0.56392133 -0.12681578
-0.2635301 0.01786899 -0.05556475 0.22061622 -2.793123e-39 -3.163637e-39 -4.58345e-39 -9.57444e-40
3.469937e-39 0.31770635 -0.00070333254 0.020818077 -0.24969496 0.1155421 0.18743394 0.6413758
-0.1945805 0.170281 0.026870668 -0.014246721 0.10881616 0.13339008 0.0048273243 -0.008654282
-0.020547412 -0.08070477 -0.005958586 0.0069603533 -0.050400928 -0.09077149 -4.39041e-40 -4.153073e-39
-9.51875e-40 1.52105e-40 -1.6655234e-38 0.036212914 0.05176034 -0.17727432 -0.0064729755 -0.06361697
-0.07288897 -0.04470506 0.040693603 0.031837862 -0.0021478175 -0.0024680798 -0.021847874 -0.010796507
0.09838209 -0.008536166 0.15416211 0.21097125 0.019887788 0.025934929 -0.09338512 -0.13247527
-4.661777e-39 1.886502e-39 1.970992e-39 -2.545972e-39 -1.85284e-39 -0.32530305 -0.057946976 0.030134922
-0.10823696 -0.093245186 -0.14787903 -0.13145392 -0.2821249 0.13680583 0.0016473708 -0.01512175
0.006246078 -0.35468358 -0.015701659 0.023169143 0.270188 -0.27294347 -0.15500446 0.0025294488
0.07057632 0.26915362 -4.435126e-39 -4.87384e-40 1.4632213e-38 -1.8362419e-38 4.99686e-40 0.12546872
0.110380806 -0.09466547 -0.045758218 -0.053136006 0.038257677 0.1111999 -0.19245291 0.16502708
-0.0012129352 0.0010089133 0.0452684 0.11431635 0.009978796 -4.027434e-05 0.16996089 0.2553023
-0.5604287 0.025729349 -0.015921196 0.121839665 -5.452279e-39 1.707513e-39 -3.151641e-39 -3.557113e-39
2.8911015e-38 0.17491432 0.1582022 -0.14333941 -0.1389764 0.012472797 -0.19370577 0.10184444
0.19245325 0.11731312 -0.010224065 -0.011475342 -0.017380953 -0.28700933 -0.023319194 -0.010811591
0.1852251 -0.09939329 0.0053684446 0.008846446 -0.032663967 -0.06510336 -2.979022e-39 -2.595255e-39
2.209635e-39 -5.377351e-39 1.736367e-39 0.15049773 -0.11002716 -0.04785456 -0.00932407 0.05678639
-0.085639715 -0.037136693 0.040924188 0.024899898 -0.0023011644 -0.005452372 -0.019943416 -0.23792645
0.13087343 0.0004887726 0.17497565 -0.108370654 0.035219476 -0.0054010716 0.02743475 0.11130636
6.195488e-39 -4.457102e-39 -3.185516e-39 2.33375e-40 5.39267e-40 0.03978603 0.13853142 -0.04234462
-0.0022791545 -0.1004359 0.025582979 0.030822497 -0.07042839 0.005920297 -0.00094087253 -0.0008373671
00000000: 93f4 a13d 5073 6cbd 6a27 4abd f6e6 8cbb
00000010: f8c0 0dbb e69c a43c 5c8e 1081 2d29 0500
00000020: ae58 3780 585b 4280 b958 2480 9742 5c3c
00000030: 9712 013e 5b5e 5ebd 1a90 123b e02c f5bd
00000040: caf2 2d3c 5cae c43b d625 2cbb 3828 b93b
00000050: 72c9 fd3a ba9c 303a 0f12 833c 0c41 b8bc
00000060: a5bf 3c3e 6e79 253a f88c 0e3e aae7 083d
00000070: 89c2 6bbd 40c5 fa3b dc99 1fbd ff36 cdbc
00000080: 9826 0280 1bce 2e80 cd85 4a00 80ef 4100
00000090: d71f 1100 4838 2abe c3b4 77bd dab8 c63d
000000a0: ea2b 25bc 824d eebd 4dc4 90bd 1d2e 16bd
000000b0: 2d4b ad3c a1a0 903d 002e 0abb 163a 79ba
000000c0: 40fa 57bc c93d 02be c23d 37be df94 f6b9
000000d0: 3919 9e3e a1d5 0abe df64 18be ec03 163c
000000e0: e9d0 98bc 3611 0e3d 5b2b 1f80 ef35 0500
000000f0: 9134 4680 2ccf 0500 c0b5 4700 8826 15bc
00000100: 6f51 debd 6248 0b3d 3fad f5bc 7a54 993d
00000110: 53a2 0bbd ea94 7e3d f737 cfbc 8088 803d
00000120: 84be 84bb 7906 87bb 2fcc 2fbd 62d7 883d
00000130: 80a7 143b ad36 c73b 265d 103f ffdb 01be
00000140: 6bed 86be fd61 923c dd97 63bd 38e9 613e
00000150: 176a 1e80 ef72 2280 cbe8 3180 f76c 0a80
00000160: c6c8 2500 68aa a23e d95f 38ba ac8a aa3c
00000170: 09b0 7fbe 56a1 ec3d afee 3f3e 3431 243f
00000180: 1c40 47be 245e 2e3e e01f dc3c 146b 69bc
00000190: 02db de3d 6997 083e 882e 9e3b b1ca 0dbc
000001a0: 0c53 a8bc 8b48 a5bd 3e40 c3bb ad13 e43b
000001b0: 3471 4ebd 67e6 b9bd dec7 0480 1439 2d80
000001c0: 715d 0a80 02a8 0100 045c b580 fe53 143d
000001d0: a602 543d 6687 35be 411b d4bb 9d49 82bd
000001e0: d046 95bd a71c 37bd 56ae 263d 6b68 023d
000001f0: 66c2 0cbb 82bf 21bb 50fa b2bc d5e3 30bc
00000200: 8d7c c93d 46db 0bbc acdc 1d3e d908 583e
00000210: b7eb a23c 7d75 d43c b340 bfbd 99a7 07be
00000220: 23c3 3280 cd8a 1400 5376 1500 22b9 1b80
00000230: f72c 1480 1f8e a6be cf59 6dbd 83dd f63c
00000240: 57ab ddbd 55f7 bebd 9a6d 17be db9b 06be
00000250: ad72 90be d416 0c3e 97ec d73a 37c1 77bc
00000260: e6ab cc3b 1699 b5be c4a0 80bc 37cd bd3c
00000270: 1556 8a3e 3fbf 8bbe 7db9 1ebe 1cc5 253b
00000280: 518a 903d 81ce 893e 544b 3080 a14e 0580
00000290: a854 9f00 f4f2 c780 ec70 0500 df7a 003e
000002a0: 550f e23d f8df c1bd f86c 3bbd 24a5 59bd
000002b0: 15b4 1c3d c6bc e33d 6012 45be dcfc 283e
000002c0: 5afb 9eba 833d 843a 5c6b 393d b11e ea3d
000002d0: 1b7e 233c 3eec 28b8 3a0a 2e3e fcb6 823e
000002e0: 4178 0fbf 5bc6 d23c 2b6d 82bc 1387 f93d
000002f0: bc5e 3b80 da97 1200 7e51 2280 c9bb 2680
00000300: 1368 1d01 bd1c 333e c2ff 213e 91c7 12be
00000310: d44f 0ebe b45a 4c3c ce5a 46be d193 d03d
00000320: 7712 453e dc41 f03d d682 27bc 1303 3cbc
00000330: 8062 8ebc e3f2 92be e507 bfbc 1923 31bc
00000340: a6ab 3d3e b68e cbbd c7e9 af3b aff0 103c
00000350: a7ca 05bd e954 85bd 4d70 2080 8442 1c80
00000360: 900f 1800 de8d 3a80 49e8 1200 141c 1a3e
00000370: eb55 e1bd 2503 44bd fcc3 18bc d898 683d
00000380: e063 afbd a51c 18bd 1fa0 273d dffa cb3c
00000390: 22cf 16bb d0a9 b2bb 6060 a3bc fea2 73be
000003a0: af03 063e f920 003a d12c 333e 6ff1 ddbd
000003b0: 4c42 103d 79fb b0bb d7be e03c 97f4 e33d
000003c0: 8076 4300 9688 3080 ecaf 2280 8e8a 0200
000003d0: 42df 0500 adf6 223d 2edb 0d3e 8d71 2dbd
000003e0: de5d 15bb 56b1 cdbd 6593 d13c 767f fc3c
000003f0: c23c 90bd 0dff c13b e3a4 76ba c182 5bba

model.0.bias f4 [128]
-1.9090802e-09 -1.6640264e-09 -1.1309254e-09 -3.0243307e-08 -5.640062e-09 -2.3500522e-08 9.003563e-09 2.4608715e-09
-8.1349265e-09 6.986933e-10 1.7173585e-09 4.3582107e-09 6.327233e-09 1.0547527e-08 2.8873912e-09 2.7246069e-08
1.5558124e-08 1.6177573e-08 -1.3790101e-09 8.531996e-11 -1.0583008e-09 6.300872e-10 -7.746015e-09 3.8130632e-10
-4.3760103e-08 -1.01157225e-08 2.0223148e-09 2.4246777e-08 3.9328192e-08 2.0115736e-09 -3.5232677e-08 -1.1469405e-09
-6.0491887e-09 2.6233926e-07 -8.964842e-10 -6.128694e-08 8.5089145e-09 4.9968345e-09 -4.1263655e-09 -6.7928836e-09
-3.763511e-09 -7.836407e-09 -2.5981356e-07 -1.5738326e-09 7.8217793e-10 -2.1367066e-09 -1.1336233e-07 -9.522607e-09
-4.894301e-09 -3.4192218e-09 -3.1533627e-09 -2.7241196e-08 7.0019046e-10 -1.3250847e-09 2.480459e-09 -3.2938388e-09
-8.268864e-09 -3.8194257e-09 -6.4266086e-09 -5.048505e-08 9.155703e-09 7.0596373e-10 3.8689376e-09 -1.8422782e-08
-2.57531e-10 1.2508676e-08 1.6380604e-08 1.1981827e-09 -8.3111135e-10 -2.123521e-09 -1.02858245e-07 -2.4089768e-09
-2.131097e-08 8.5548413e-10 1.8362845e-09 -5.051405e-09 3.1126544e-09 -2.4644256e-08 -4.4626913e-10 -3.3087488e-09
4.7496456e-09 2.7671023e-09 -3.1434022e-09 8.647579e-10 7.1933295e-09 1.8056657e-08 -1.8758683e-08 7.576246e-09
-3.0068992e-10 3.5315308e-09 2.5321603e-08 8.0542045e-11 -3.2062122e-10 2.111196e-08 -9.7857146e-08 -4.0521265e-08
1.1056688e-09 -1.2901824e-09 4.5642075e-08 1.2148023e-09 -1.591424e-06 5.2358634e-10 -6.041019e-10 9.984113e-08
2.6585205e-08 2.8523865e-09 2.9845623e-10 -1.8207976e-08 -3.262808e-11 -1.0538006e-09 -2.4025365e-08 -3.519574e-09
6.770279e-11 -9.870963e-09 2.344045e-08 -2.248914e-09 -2.1212186e-08 7.2941546e-09 1.5920201e-09 2.0560558e-09
-6.4789503e-09 3.5205172e-09 4.242293e-08 7.5368426e-08 -1.0059924e-08 2.250292e-09 7.2517494e-08 1.1925795e-07
00000000: e530 03b1 b9b3 e4b0 e66e 9bb0 dee4 01b3
00000010: 83ca c1b1 32de c9b2 17ae 1a32 1c1c 2931
00000020: c9c1 0bb2 2c0e 4030 2e08 ec30 3abf 9531
00000030: ee66 d931 8434 3532 866b 4631 bd0a ea32
00000040: ada4 8532 dcf6 8a32 9b87 bdb0 de9e bb2e
00000050: a673 91b0 7232 2d30 5613 05b2 18a0 d12f
00000060: bef2 3bb3 6bc9 2db2 f0f8 0a31 3a47 d032
00000070: cee9 2833 fa3b 0a31 bd52 17b3 62a2 9db0
00000080: 3ad9 cfb1 a2d7 8c34 786c 76b0 da9c 83b3
00000090: 9a2e 1232 9fb0 ab31 e5c7 8db1 d666 e9b1
000000a0: 3150 81b1 e2a0 06b2 817c 8bb4 504e d8b0
000000b0: e100 5730 57d5 12b1 9a71 f3b3 de98 23b2
000000c0: ba2a a8b1 96f7 6ab1 8bb2 58b1 0600 eab2
000000d0: 8677 4030 461e b6b0 b274 2a31 d359 62b1
000000e0: d90e 0eb2 063c 83b1 0cd1 dcb1 e6d4 58b3
000000f0: 354b 1d32 c80d 4230 89ef 8431 2040 9eb2
00000100: 4494 8daf bde5 5632 54b5 8c32 4ead a430
00000110: 4374 64b0 60ed 11b1 ebe2 dcb3 2b8b 25b1
00000120: 520f b7b2 5827 6b30 8460 fc30 a190 adb1
00000130: 65e6 5531 4bb1 d3b2 cc56 f5af 2060 63b1
00000140: 5332 a331 6127 3e31 5103 58b1 edb3 6d30
00000150: 3229 f731 021b 9b32 c822 a1b2 af28 0232
00000160: 584e a5af 59af 7231 cb82 d932 241d b12e
00000170: 6d43 b0af b159 b532 8925 d2b3 9a09 2eb3
00000180: 43f6 9730 4252 b1b0 fe07 4433 0ef6 a630
00000190: ea98 d5b5 1dec 0f30 e40d 26b0 3e68 d633
000001a0: 7c5d e432 b703 4431 fb13 a42f c367 9cb2
000001b0: f47f 0fae 50d5 90b0 5660 ceb2 00dd 71b1
000001c0: 48e1 942e f494 29b2 185a c932 508b 1ab1
000001d0: 1736 b6b2 10a0 fa31 3ace da30 844a 0d31
000001e0: 739d deb1 98ed 7131 8134 3633 3bda a133
000001f0: 03d4 2cb2 8ea3 1a31 eaba 9b33 600d 0034

model.1.weight f4 [128]
0.65305036 0.7296554 0.6702058 0.86095566 0.6802805 0.79084647 0.6764637 0.7615866
0.73475355 0.66863126 0.81041425 0.81148636 0.657925 0.5793541 0.81026393 0.68137515
0.8581088 0.73028123 0.73489904 0.6684208 0.7397994 0.7499948 0.76730204 0.6153238
0.86564535 0.77510077 0.7255905 0.89085925 0.7270846 0.668339 0.8933334 0.6309222
0.67148316 0.99441147 0.7117922 0.673064 0.79140216 0.8467075 0.72631645 0.7793348
0.7107256 0.79945654 1.088588 0.7467706 0.62190205 0.67291015 0.91819465 0.7132194
0.776581 0.83253187 0.7837153 0.78626657 0.6945289 0.6474732 0.6750586 0.7214322
0.72119206 0.6573803 0.69049686 0.8694019 0.7188145 0.6261097 0.7537416 0.73296285
0.77266794 0.7607248 0.76856494 0.9091605 0.62179774 0.73695356 0.94535583 0.71267986
0.7720063 0.61153525 0.60044205 0.71636903 0.8325022 0.67416036 0.7298586 0.70697963
0.76652044 0.83656657 0.8374322 0.6331158 0.6354829 0.9954321 0.7669314 0.7625678
0.75015557 0.71570605 0.92908007 0.6827902 0.66689265 0.8025947 0.8669373 1.0633198
0.6561554 0.6084003 0.89008045 0.61377025 0.9844315 0.6196937 0.60499674 1.0576034
0.79441106 0.62884635 0.5689474 0.6911462 0.8021263 0.6558264 1.0096402 0.70292014
0.6071315 0.709818 0.6149355 0.69786555 0.84013987 0.63603103 0.7987501 0.8084313
0.75847375 0.6329581 0.9657509 0.92029846 0.5951694 0.73727745 0.8592998 0.9700929
00000000: 4f2e 273f b2ca 3a3f 9b92 2b3f 9767 5c3f
00000010: dd26 2e3f ea74 4a3f ba2c 2d3f 57f7 423f
00000020: cf18 3c3f 6b2b 2b3f 4f77 4f3f 92bd 4f3f
00000030: c66d 283f 8d50 143f 756d 4f3f 9a6e 2e3f
00000040: 05ad 5b3f b6f3 3a3f 5822 3c3f a01d 2b3f
00000050: 7e63 3d3f a9ff 3f3f e86d 443f dc85 1d3f
00000060: ef9a 5d3f 016d 463f 4dc0 393f 5a0f 643f
00000070: 3722 3a3f 4418 2b3f 7fb1 643f 1e84 213f
00000080: 52e6 2b3f c091 7e3f 0338 363f ec4d 2c3f
00000090: 5599 4a3f d3c1 583f e0ef 393f 7c82 473f
000000a0: 1df2 353f 2fa9 4c3f da56 8b3f 5c2c 3f3f
000000b0: f934 1f3f d743 2c3f ce0e 6b3f 8c95 363f
000000c0: 03ce 463f cf20 553f 91a1 483f c448 493f
000000d0: a5cc 313f cec0 253f a4d0 2c3f c8af 383f
000000e0: 0ba0 383f 134a 283f 67c4 303f 1f91 5e3f
000000f0: 3a04 383f ba48 203f 36f5 403f 74a3 3b3f
00000100: 91cd 453f dcbe 423f acc0 443f bebe 683f
00000110: 232e 1f3f fda8 3c3f d702 723f 3072 363f
00000120: 34a2 453f 938d 1c3f 92b6 193f f663 373f
00000130: dd1e 553f c695 2c3f 03d8 3a3f 9efc 343f
00000140: af3a 443f 3a29 563f f561 563f e113 223f
00000150: 02af 223f a3d4 7e3f 9e55 443f a537 433f
00000160: 320a 403f 8338 373f 31d8 6d3f 57cb 2e3f
00000170: 7ab9 2a3f d976 4d3f 9aef 5d3f dd1a 883f
00000180: cdf9 273f 1fc0 1b3f 50dc 633f 0c20 1d3f
00000190: b403 7c3f 3fa4 1e3f 11e1 1a3f 8c5f 873f
000001a0: 865e 4b3f 13fc 203f 89a6 113f f5ee 303f
000001b0: 2658 4d3f 3de4 273f e43b 813f 93f2 333f
000001c0: f86c 1b3f a2b6 353f 6a6c 1d3f 51a7 323f
000001d0: 6813 573f eed2 223f e37a 4c3f 5bf5 4e3f
000001e0: 562b 423f 8b09 223f 733b 773f ae98 6b3f
000001f0: 065d 183f 37be 3c3f 12fb 5b3f 0258 783f

model.1.bias f4 [128]
-0.06685553 -0.13082929 -0.046871156 0.18907197 0.050776433 -0.20711035 0.022671688 -0.0054526487
-0.065964915 -0.048523344 -0.123678446 -0.13893309 0.09637868 -0.07064477 -0.15438426 -0.031889986
0.036103055 -0.10165225 0.120175675 -0.020295242 -0.02768824 -0.17099111 -0.024796037 -0.02106982
-0.19307838 -0.11959367 -0.030151973 -0.19433025 -0.13007641 -0.052610997 -0.025942635 -0.05969971
-0.21186504 -0.08688369 -0.05225483 -0.036714006 -0.11008534 -0.16128157 -0.080213115 -0.20173877
-0.120058775 0.07015889 0.060277954 -0.10618845 -0.050248723 -0.2371337 -0.11024529 0.033635177
-0.17246144 -0.15762076 -0.097763255 -0.15193836 -0.057020515 -0.09791636 -0.08897605 -0.29363126
-0.11263502 -0.17763874 -0.09449794 -0.22780937 -0.15158983 -0.02157508 -0.23869593 0.09616328
0.015382798 0.00073613704 -0.15769142 -0.14975744 -0.088783875 0.10178896 -0.18059403 -0.06522503
-0.110675134 -0.053603467 -0.10605789 -0.15766786 -0.23235957 -0.115796916 -0.18035464 0.0056832703
-0.13650759 -0.17878927 -0.15757883 -0.09861594 -0.07384973 -0.06346713 -0.03760243 -0.09942796
-0.121541664 -0.043168433 -0.29403764 -0.11451377 -0.15726307 -0.031269185 -0.047532056 0.053419188
-0.026450144 -0.052842192 -0.16705395 -0.040294956 0.30171126 -0.009697537 -0.1485201 0.12404014
0.021549942 -0.072410926 -0.070767984 0.035068564 -0.17418121 -0.03138234 0.03202076 -0.15313058
-0.029267468 -0.1326357 -0.19011016 0.01387142 -0.09925626 -0.10423514 -0.23643503 -0.13479857
-0.016545137 -0.060546543 -0.15139584 0.14923362 0.011538778 -0.07306842 -0.017046673 0.2010104
00000000: 8deb 88bd 1df8 05be f8fb 3fbd 159c 413e
00000010: f3fa 4f3d bc14 54be fab9 b93c 22ac b2bb
00000020: 9d18 87bd 6ac0 46bd 204b fdbd 7a44 0ebe
00000030: 2f62 c53d 35ae 90bd e816 1ebe 139f 02bd
00000040: cce0 133d 0e2f d0bd aa1e f63d 3542 a6bc
00000050: 73d2 e2bc 4b18 2fbe 0f21 cbbc 9d9a acbc
00000060: 57b6 45be 87ed f4bd 4501 f7bc 82fe 46be
00000070: c032 05be a17e 57bd a685 d4bc af87 74bd
00000080: 26f3 58be 13f0 b1bd 2909 56bd 6d61 16bd
00000090: 6c74 e1bd ff26 25be c646 a4bd 9c94 4ebe
000000a0: 60e1 f5bd 77af 8f3d 04e6 763d 5479 d9bd
000000b0: 9bd1 4dbd 2dd3 72be 48c8 e1bd 0ac5 093d
000000c0: bb99 30be 5667 21be 1a38 c8bd bb95 1bbe
000000d0: 588e 69bd 5f88 c8bd 1339 b6bd d656 96be
000000e0: 30ad e6bd eee6 35be 2388 c1bd dc46 69be
000000f0: 5d3a 1bbe 39be b0bc b56c 74be 41f1 c43d
00000100: 2208 7c3c 52f9 403a dc79 21be 045a 19be
00000110: 52d4 b5bd bb76 d03d a4ed 38be b394 85bd
00000120: a5a9 e2bd 4f8f 5bbd e134 d9bd af73 21be
00000130: abef 6dbe ef26 edbd e3ae 38be ba3a ba3b
00000140: a5c8 0bbe 8914 37be 585c 21be 27f7 c9bd
00000150: 873e 97bd 0efb 81bd 0105 1abd e3a0 cbbd
00000160: d6ea f8bd 62d1 30bd 1a8c 96be 3286 eabd
00000170: 9209 21be 1e14 00bd f9b0 42bd 14ce 5a3d
00000180: f9ad d8bc 0e71 58bd 3110 2bbe 530c 25bd
00000190: e679 9a3e 6be2 1ebc a715 18be c208 fe3d
000001a0: 8189 b03c 2e4c 94bd ceee 90bd 0ea4 0f3d
000001b0: 8f5c 32be c58a 00bd 3328 033d 43ce 1cbe
000001c0: 54c2 efbc a7d1 07be 3dac 42be f444 633c
000001d0: de46 cbbd 3c79 d5bd 061c 72be a308 0abe
000001e0: ab89 87bc a7ff 77bd 8307 1bbe b3d0 183e
000001f0: 250d 3d3c e5a4 95bd 77a5 8bbc acd5 4d3e

model.1.running_mean f4 [128]
355.11432 -219.0212 -87.674484 59.60685 -55.115166 -69.56638 39.32144 -15.524767
-26.89906 153.9229 -6.3940926 -71.06413 123.54907 216.58072 -237.12842 74.92484
-46.405983 -101.56539 27.736328 -360.58932 -57.871502 -163.01926 -50.414066 359.0788
-12.599581 102.87145 -12.895728 -48.407566 -98.954926 323.77805 10.997467 397.43527
131.0702 -15.161694 -99.430275 140.53148 125.367256 -88.04764 -89.266815 -52.988724
-4.5088615 -35.97846 -3.278628 -141.41098 -95.296364 -64.290665 -37.612114 -62.91831
-86.73883 -273.60602 -0.005038321 -100.012665 -369.69156 -14.968327 -301.08536 61.085217
-5.8320503 150.78262 -67.47815 -51.7176 -65.71734 194.01765 -213.53561 -0.5054062
10.678842 5.369276 -86.89256 -13.090952 340.69766 -26.34942 16.84789 -155.05809
-53.364162 313.61533 360.84656 -143.46765 -72.87272 56.399086 -14.89901 315.62943
-118.39455 -137.79413 -268.09625 499.15176 198.34901 2.1562047 -4.2452116 40.575058
-193.49123 -209.21965 -9.691735 -300.92242 -279.67337 6.4213924 -41.73069 6.7425594
-74.66129 189.19942 -69.50175 387.86722 13.4713955 123.49655 -450.0349 -1.6371267
23.489271 215.38867 28.816093 -22.032322 -150.10812 216.83298 35.327133 -45.512634
247.46777 -396.39868 89.87358 151.83795 -50.206722 -92.70358 -237.16426 -46.58025
-62.33964 130.6194 -0.110750705 22.660395 -82.76099 -20.320658 16.840696 28.682129
00000000: a28e b143 6d05 5bc3 5659 afc2 6a6d 6e42
00000010: ee75 5cc2 fd21 8bc2 2849 1d42 7265 78c1
00000020: 4631 d7c1 43ec 1943 689c ccc0 d620 8ec2
00000030: 2019 f742 aa94 5843 e020 6dc3 85d9 9542
00000040: ba9f 39c2 7b21 cbc2 00e4 dd41 6f4b b4c3
00000050: 6b7c 67c2 ee04 23c3 01a8 49c2 168a b343
00000060: e297 49c1 2fbe cd42 e754 4ec1 59a1 41c2
00000070: ece8 c5c2 97e3 a143 a0f5 2f41 b7b7 c643
00000080: f911 0343 4c96 72c1 4ddc c6c2 0f88 0c43
00000090: 09bc fa42 6418 b0c2 9c88 b2c2 74f4 53c2
000000a0: 9848 90c0 f1e9 0fc2 0bd5 51c0 3669 0dc3
000000b0: bd97 bec2 d294 80c2 ce72 16c2 59ac 7bc2
000000c0: 487a adc2 92cd 88c3 8018 a5bb 7c06 c8c2
000000d0: 85d8 b8c3 447e 6fc1 ed8a 96c3 4357 7442
000000e0: 28a0 bac0 5ac8 1643 d0f4 86c2 d3de 4ec2
000000f0: 476f 83c2 8504 4243 1e89 55c3 4d62 01bf
00000100: 89dc 2a41 1cd1 ab40 fec8 adc2 8a74 51c1
00000110: 4d59 aa43 9dcb d2c1 7bc8 8641 df0e 1bc3
00000120: e774 55c2 c3ce 9c43 5c6c b443 b877 0fc3
00000130: d5be 91c2 aa98 6142 5862 6ec1 91d0 9d43
00000140: 02ca ecc2 4ccb 09c3 520c 86c3 6d93 f943
00000150: 5959 4643 42ff 0940 c6d8 87c0 dc4c 2242
00000160: c17d 41c3 3b38 51c3 5911 1bc1 1276 96c3
00000170: 31d6 8bc3 0c7c cd40 3aec 26c2 0cc3 d740
00000180: 9552 95c2 0d33 3d43 e500 8bc2 01ef c143
00000190: d68a 5741 3cfe f642 7804 e1c3 5e8d d1bf
000001a0: 07ea bb41 8063 5743 5c87 e641 3242 b0c1
000001b0: ae1b 16c3 3ed5 5843 fc4e 0d42 f00c 36c2
000001c0: c077 7743 0833 c6c3 46bf b342 84d6 1743
000001d0: afd3 48c2 3c68 b9c2 0d2a 6dc3 2d52 3ac2
000001e0: cb5b 79c2 919e 0243 44d1 e2bd 7d48 b541
000001f0: a085 a5c2 b590 a2c1 bfb9 8641 0075 e541

model.1.running_var f4 [128]
40498.113 24670.996 9021.995 2069.3987 35454.895 2507.2642 825.1122 1038.4199
46364.016 14846.558 2086.8833 3990.3008 24996.9 14900.571 23158.303 3900.4294
989.1564 4494.647 522.0914 111015.17 20616.166 121674.84 4198.108 43396.35
1103.5693 5401.2466 12059.745 1151.757 12747.649 54438.55 903.25226 54559.19
6947.6636 494.1818 31775.68 8050.3916 6733.8916 3117.0938 4748.8945 2441.687
34182.895 1620.6124 378.50952 107152.94 51101.285 17863.73 753.2901 7465.1274
13967.078 28148.209 1438.215 4656.269 115952.68 44616.254 102405.82 4965.2075
1797.4152 11315.187 2325.8787 1125.9023 1598.485 29324.691 39033.332 1257.1453
1514.484 17856.352 17563.781 478.9977 62796.47 1166.0062 544.3503 19527.299
2529.7722 31280.092 41437.23 108172.81 2253.801 5853.5137 12963.899 31782.951
8600.476 6246.2915 27173.787 132878.48 13291.171 350.52386 1945.5503 1306.0992
52272.266 45067.78 874.6391 48435.543 78804.94 1215.1997 1907.927 486.80173
55672.3 21073.025 2103.5613 47985.74 243.42662 11830.681 99191.85 398.14114
2204.2864 28820.18 7169.181 971.4841 13750.349 19015.258 451.96466 2989.7913
42235.89 84574.96 10079.571 12874.728 863.54407 3695.682 28469.006 3120.912
6390.8335 6604.6855 840.4101 253.43886 27124.28 15625.2295 2056.9805 287.96393
00000000: 1d32 1e47 febd c046 fbf7 0c46 6156 0145
00000010: e57e 0a47 3ab4 1c45 2e47 4e44 70cd 8144
00000020: 041c 3547 3bfa 6746 226e 0245 d064 7945
00000030: cd49 c346 49d2 6846 9bec b446 dfc6 7345
00000040: 024a 7744 2d75 8c45 d985 0244 96d3 d847
00000050: 5510 a146 6ca5 ed47 dd30 8345 5a84 2947
00000060: 38f2 8944 f9c9 a845 fb6e 3c46 39f8 8f44
00000070: 992e 4746 8da6 5447 25d0 6144 311f 5547
00000080: 4f1d d945 4517 f743 5c3f f846 2293 fb45
00000090: 226f d245 80d1 4245 2867 9445 fe9a 1845
000000a0: e586 0547 9993 ca44 3841 bd43 7848 d147
000000b0: 499d 4747 768f 8b46 9152 3c44 0549 e945
000000c0: 503c 5a46 6be8 db46 e1c6 b344 2782 9145
000000d0: 5778 e247 4148 2e47 e902 c847 a929 9b45
000000e0: 49ad e044 bfcc 3046 0f5e 1145 e0bc 8c44
000000f0: 85cf c744 6219 e546 5579 1847 a624 9d44
00000100: 7d4f bd44 b480 8b46 9037 8946 b57f ef43
00000110: 784c 7547 33c0 9144 6b16 0844 998e 9846
00000120: 5b1c 1e45 2f60 f446 3bdd 2147 6846 d347
00000130: d1dc 0c45 1cec b645 998f 4a46 e74d f846
00000140: e761 0646 5532 c345 934b d446 9fc3 0148
00000150: afac 4f46 0e43 af43 9c31 f344 2d43 a344
00000160: 4430 4c47 c80b 3047 e7a8 5a44 8b33 3d47
00000170: 78ea 9947 64e6 9744 aa7d ee44 9f66 f343
00000180: 4d78 5947 0da2 a446 fb78 0345 bd71 3b47
00000190: 376d 7343 b9da 3846 edbb c147 1112 c743
000001a0: 95c4 0945 5c28 e146 7309 e045 fbde 7244
000001b0: 65d9 5646 848e 9446 7afb e143 a9dc 3a45
000001c0: e4fb 2447 7b2f a547 497e 1d46 e92a 4946
000001d0: d2e2 5744 e9fa 6645 036a de46 980e 4345
000001e0: abb6 c745 7c65 ce45 3f1a 5244 5970 7d43
000001f0: 8fe8 d346 eb24 7446 b08f 0045 62fb 8f43

model.4.weight f4 [64, 128]
-0.12791023 -0.016558088 -0.010799727 -0.029115718 -0.003086592 0.08307969 0.04681831 -0.021518804
-0.042701047 0.0011872938 0.040360115 -0.027927903 0.072618596 -0.08148392 -0.047515742 0.032065414
-0.10107392 0.0009881522 -0.024170784 0.045118622 -0.0026774001 -0.010174967 0.0029132513 -0.0016250155
0.1756175 -0.12684947 0.042632334 -0.06653695 0.05511781 -0.054670926 -0.09983494 -0.07238541
0.031359233 0.081434324 -0.06833954 -0.036565468 0.01880912 -0.10689281 0.047956534 0.13172834
0.016009988 -0.037301477 -0.14082034 0.059370436 -0.004697863 -0.049992874 -0.15070346 -0.056433707
-0.02689002 -0.091279775 0.07282455 -0.012351654 0.021219648 0.03450161 0.029432263 0.056400683
0.072380565 0.008039278 0.04571361 -0.09647056 -0.11001843 -0.08563665 -0.03495533 0.04587085
-0.10843825 0.021525024 -0.123462796 0.07542178 -0.020533308 -0.10960829 -0.05876039 0.05709901
-0.0808968 -0.06378005 -0.1310463 0.035655085 0.01898746 -0.02202141 0.002710786 -0.048373565
-0.023840196 -0.12892991 -0.021732334 -0.0660466 -0.03334439 0.06400369 -0.061713476 -0.11418197
-0.07771659 -0.023729332 0.051728386 0.059845753 0.038154468 -0.07719931 0.024917783 -0.09096124
0.048098527 0.0045751072 0.04609889 -0.092077814 0.045695517 -0.0038632578 0.019499902 -0.07620781
0.08607215 0.005061039 -0.015661187 0.020110082 0.018658176 -0.059642505 -0.052578792 0.06991721
0.022166375 -0.010275283 -0.040290356 0.006268583 -0.023847869 0.052842084 -0.08304957 -0.0012892582
-0.029739048 -0.09550489 0.03137218 -0.06481582 0.050142977 0.03627781 -0.053183112 -0.107076444
0.010776904 -0.1228999 -0.005278614 0.100904256 -0.028950136 0.06746607 0.10360626 -0.060631096
-0.14394508 0.00215573 0.015601809 0.01178504 -0.0392494 0.035899308 -0.04437787 0.13096297
0.014924537 0.047013104 0.027993781 -0.034257222 -0.01590696 -0.114572495 -0.0900665 0.060906917
-0.010160903 -0.04177834 -0.01677366 -0.08494821 0.07061315 0.029632427 0.11488552 0.06749121
0.10579072 -0.06704223 0.017717429 0.013878587 -0.0922742 -0.074567884 -0.038783096 0.028890628
-0.026755774 -0.061901994 0.018062908 -0.15146513 -0.11021071 -0.077036195 0.1706074 -0.0683105
-0.12810911 -0.09097808 -0.042882387 -0.15036225 -0.0146842785 -0.08541571 -0.051771645 0.05314229
-0.034514163 0.017225005 0.045433488 -0.09557705 0.003491333 0.009923062 -0.08746344 0.026901422
-0.0104209455 -0.119849265 -0.042392094 -0.06905276 0.049659554 -0.03783206 0.03073796 0.04142049
-0.09711956 0.04801601 0.048631873 -0.109589994 0.045723177 -0.022746298 -0.02118197 0.052976068
-0.0040798644 -0.03202014 -0.069377325 0.059433 0.055104606 -0.05615306 0.026682334 -0.11214195
-0.020746725 -0.072096996 -0.020708801 0.0018937963 -0.032749075 0.100889 -0.107034095 -0.025144195
-0.06631464 0.12561809 0.07702628 0.005588548 0.0035592453 0.0512825 -0.023885151 0.041234504
0.026917143 -0.020882698 -0.011223487 0.031467926 -0.015990552 0.10827798 0.012584112 -0.055859737
0.062101513 0.04268828 -0.04265917 0.009356122 -0.043468427 -0.008670659 -0.079063766 -0.09567358
-0.08817115 0.07697018 -0.019098792 0.009336874 -0.07726838 -0.09457312 0.056079064 0.008584324
00000000: e6fa 02be d4a4 87bc 57f1 30bc 1684 eebc
00000010: 6c48 4abb af25 aa3d 8ec4 3f3d 3448 b0bc
00000020: 4be7 2ebd f89e 9b3a a650 253d 0fc9 e4bc
00000030: 0fb9 943d 0be1 a6bd de9f 42bd 0657 033d
00000040: d8ff cebd e384 813a cf01 c6bc 4ece 383d
00000050: 5277 2fbb e8b4 26bc 3fec 3e3b 79fe d4ba
00000060: 13d5 333e d4e4 01be 3e9f 2e3d 8644 88bd
00000070: 36c3 613d 9fee 5fbd 4376 ccbd cd3e 94bd
00000080: 8a72 003d 0ac7 a63d 9af5 8bbd acc5 15bd
00000090: 9515 9a3c 9eea dabd 126e 443d cbe3 063e
000000a0: 6127 833c 6fc9 18bd 3533 10be 6a2e 733d
000000b0: 88f0 99bb 54c5 4cbd 0252 1abe 0827 67bd
000000c0: 7648 dcbc e4f0 babd 0a25 953d 975e 4abc
000000d0: d4d4 ad3c 8f51 0d3d ee1b f13c 6704 673d
000000e0: 433c 943d 2db7 033c 323e 3b3d 5b92 c5bd
000000f0: 5851 e1bd 4562 afbd 522d 0fbd 13e3 3b3d
00000100: e014 debd 3f55 b03c 10da fcbd bc76 9a3d
00000110: 7835 a8bc 507a e0bd bcae 70bd a7e0 693d
00000120: 39ad a5bd 1d9f 82bd 0031 06be 110b 123d
00000130: 978b 9b3c 3e66 b4bc 71a7 313b 5c23 46bd
00000140: 844c c3bc 3406 04be 0208 b2bc 7143 87bd
00000150: 2194 08bd 5e14 833d 45c7 7cbd 3dd8 e9bd
00000160: e029 9fbd 0464 c2bc 25e1 533d d220 753d
00000170: dc47 1c3d ac1a 9ebd 6120 cc3c e349 babd
00000180: f602 453d c8ea 953b 31d2 3c3d 4b93 bcbd
00000190: 392b 3b3d b62e 7dbb 42be 9f3c d712 9cbd
000001a0: 9846 b03d 12d7 a53b e44b 80bc e6bd a43c
000001b0: 08d9 983c b34b 74bd dc5c 57bd c130 8f3d
000001c0: 4296 b53c a959 28bc 8007 25bd af68 cd3b
000001d0: 9b5c c3bc f170 583d e515 aabd 54fc a8ba
000001e0: 4e9f f3bc 1198 c3bd 1d80 003d 28be 84bd
000001f0: b962 4d3d 0a98 143d 89d6 59bd e54a dbbd
00000200: 9d91 303c f1b2 fbbd 39f8 acbb e4a6 ce3d
00000210: d628 edbc a72b 8a3d 852f d43d 5058 78bd
00000220: 5766 13be 2647 0d3b bb9e 7f3c 0a16 413c
00000230: fbc3 20bd 270b 133d 92c5 35bd 281b 063e
00000240: 0c86 743c d090 403d 3753 e53c 4d51 0cbd
00000250: 504f 82bc fca4 eabd c974 b8bd 8879 793d
00000260: eb79 26bc c41f 2bbd ea68 89bc 54f9 adbd
00000270: a19d 903d b4bf f23c 1949 eb3d d538 8a3d
00000280: cea8 d83d 704d 89bd 2424 913c 0363 633c
00000290: 41fa bcbd 0cb7 98bd 06db 1ebd 0aac ec3c
000002a0: ed2e dbbc f28c 7dbd aaf8 933c ad19 1bbe
000002b0: 27b6 e1bd 27c5 9dbd b5b3 2e3e 60e6 8bbd
000002c0: 092f 03be b752 babd 71a5 2fbd 90f8 19be
000002d0: 5496 70bc 6fee aebd 810e 54bd bbab 593d
000002e0: b95e 0dbd 741b 8d3c 7718 3a3d e6bd c3bd
000002f0: d9ce 643b 5794 223c 0820 b3bd 5f60 dc3c
00000300: 9dbc 2abc 8873 f5bd 55a3 2dbd 896b 8dbd
00000310: d167 4b3d caf5 1abd 2dce fb3c 88a8 293d
00000320: 9fe6 c6bd 70ac 443d 3732 473d b870 e0bd
00000330: 3a48 3b3d 7256 babc d085 adbc 6ffd 583d
00000340: 62b0 85bb 8d27 03bd b315 8ebd 0470 733d
00000350: 5eb5 613d c000 66bd e994 da3c aeaa e5bd
00000360: 09f5 a9bc 97a7 93bd 81a5 a9bc 4239 f83a
00000370: e523 06bd e49e ce3d b134 dbbd 33fb cdbc
00000380: f8cf 87bd 07a2 003e f4bf 9d3d 2320 b73b
00000390: 3a42 693b 990d 523d cbaa c3bc 83e5 283d
000003a0: 5781 dc3c 3112 abbc b7e2 37bc 83e4 003d
000003b0: 9efe 82bc d8c0 dd3d 972d 4e3c 2ecd 64bd
000003c0: 285e 7e3d e8d9 2e3d 62bb 2ebd 6c4a 193c
000003d0: f30b 32bd 610f 0ebc 2fec a1bd 83f0 c3bd
000003e0: 1393 b4bd 8ba2 9d3d 1275 9cbc b0f9 183c
000003f0: e23e 9ebd 8daf c1bd 29b3 653d 44a5 0c3c

model.4.bias f4 [64]
6.888256e-07 6.663164e-07 -3.4994302e-06 2.5350496e-06 7.884261e-06 -2.4575846e-07 -4.037049e-06 3.0586494e-07
3.944028e-06 1.0126234e-06 1.0004289e-06 -5.271169e-07 -7.1467766e-06 4.189375e-07 -1.484637e-07 9.3964377e-07
-2.8225695e-06 1.0015566e-06 -5.269234e-06 -1.3291566e-06 2.0458876e-06 -2.092194e-06 -4.2879321e-07 3.0726756e-07
2.693817e-06 -3.136543e-06 5.6323224e-06 -3.276086e-06 2.581342e-06 -8.31105e-07 1.1831843e-06 -3.3078277e-06
1.511928e-06 -1.1381844e-06 -7.009021e-09 5.6156637e-07 -3.4881043e-07 -3.3091355e-06 1.2047153e-06 1.7803089e-06
-2.0430352e-06 1.7953613e-07 -1.8805814e-06 -1.9304512e-06 4.034135e-06 2.3189596e-06 7.201331e-07 -5.4991233e-07
-1.3084492e-06 3.319526e-07 -2.6172625e-06 2.4415574e-06 -2.0328089e-06 3.9558233e-07 3.0145176e-07 4.9532517e-08
-2.7141991e-06 1.2177479e-06 1.2284186e-06 -6.8029954e-07 2.6872385e-07 2.390729e-06 1.5148123e-06 4.861608e-07
00000000: bce7 3835 eadc 3235 c1d7 6ab6 d21f 2a36
00000010: a546 0437 c9f0 83b4 fd75 87b6 c235 a434
00000020: f156 8436 7ae9 8735 7a46 8635 337f 0db5
00000030: 58ce efb6 55ea e034 6469 1fb4 d43b 7c35
00000040: 606b 3db6 396d 8635 60ce b0b6 7965 b2b5
00000050: 154c 0936 9f67 0cb6 e434 e6b4 88f6 a434
00000060: 6cc7 3436 667d 52b6 48fd bc36 bbda 5bb6
00000070: 1e3b 2d36 1a19 5fb5 e7cd 9e35 0cfc 5db6
00000080: 73ed ca35 b8c3 98b5 00d4 f0b1 8cbe 1635
00000090: 2444 bbb4 8412 5eb6 b4b1 a135 f3f2 ee35
000000a0: 141b 09b6 84c6 4034 4968 fcb5 e68c 01b6
000000b0: f55c 8736 6c9f 1b36 2b4f 4135 b09d 13b5
000000c0: f99d afb5 3837 b234 3aa4 2fb6 a3d9 2336
000000d0: 646b 08b6 6c60 d434 37d7 a134 94bd 5433
000000e0: 9625 36b6 8071 a335 24e0 a435 d49d 36b5
000000f0: 2045 9034 6970 2036 8e50 cb35 b780 0235

model.5.weight f4 [64]
0.8870435 0.7783006 0.7964117 0.8779765 0.82030535 0.8327207 0.89022726 0.76202506
0.85105634 0.7605419 0.77535707 0.81627786 0.86995614 0.81693554 0.84426075 0.8794998
0.7947685 0.8558502 0.779667 0.7999138 0.90944505 0.75861436 0.8756039 0.70300734
0.73360777 0.82418746 0.7925489 0.8155929 0.8300387 0.78772676 0.80843306 0.86115533
0.8144724 0.9047644 0.7650433 0.7795867 0.75401676 0.77809525 0.8768611 0.80149585
0.83941483 0.8375083 0.8249875 0.8985861 0.7436613 0.84224206 0.8553817 0.82135063
0.8737542 0.79317206 0.86251825 0.8088143 0.83556783 0.78961724 0.9231572 0.84158957
0.8643192 0.73585075 0.842792 0.85499513 0.757069 0.8852315 0.8068051 0.7574862
00000000: 4815 633f b53e 473f a3e1 4b3f 11c3 603f
00000010: 88ff 513f 2f2d 553f efe5 633f 1314 433f
00000020: d4de 593f e0b2 423f cd7d 463f 96f7 503f
00000030: 72b5 5e3f b022 513f 7921 583f e626 613f
00000040: f375 4b3f 0019 5b3f 4298 473f 27c7 4c3f
00000050: 64d1 683f 8d34 423f 9427 603f 4af8 333f
00000060: b8cd 3b3f f3fd 523f 7ce4 4a3f b2ca 503f
00000070: 6b7d 543f 76a8 493f 78f5 4e3f ad74 5c3f
00000080: 4381 503f a49e 673f e1d9 433f fe92 473f
00000090: 3e07 413f 4031 473f f879 603f d52e 4d3f
000000a0: e4e3 563f f266 563f 6132 533f bd09 663f
000000b0: 9660 3e3f 2d9d 573f 4cfa 5a3f 0944 523f
000000c0: 5bae 5f3f 530d 4b3f ffcd 5c3f 740e 4f3f
000000d0: c6e7 553f 5b24 4a3f 0854 6c3f 6a72 573f
000000e0: 0644 5d3f b760 3c3f 37c1 573f f6e0 5a3f
000000f0: 46cf 413f 889e 623f c78a 4e3f 9eea 413f

model.5.bias f4 [64]
-0.11175428 -0.21421082 0.00052866485 -0.33495307 -0.08941569 -0.19073589 -0.14614037 -0.0625875
-0.15079002 -0.12943533 -0.058203433 -0.10871814 -0.26545012 0.04325318 -0.038162407 -0.08034212
-0.07249116 -0.2534152 0.011998955 -0.17603712 -0.18647002 -0.20716797 -0.12430796 -0.120489456
-0.04118975 -0.22276285 0.063044444 -0.044067383 -0.19817188 -0.15809438 -0.21342564 -0.07860766
0.09773131 -0.09109135 -0.19215158 -0.07574889 0.015554619 -0.12853485 -0.2220962 -0.10603637
-0.12830544 -0.13749036 -0.11506253 -0.03656175 0.00038927258 -0.10302404 -0.09144852 -0.07149372
-0.12355145 -0.051154684 -0.028457373 -0.23269702 -0.097933814 -0.14193738 -0.088098675 -0.11380962
-0.08307051 0.030849734 -0.047931943 -0.06912986 -0.08021188 -0.14630023 -0.09166937 -0.16458936
00000000: 6edf e4bd 155a 5bbe 1996 0a3a f87e abbe
00000010: 931f b7bd 4550 43be d2a5 15be e02d 80bd
00000020: b368 1abe b28a 04be b966 6ebd 9ea7 debd
00000030: 14e9 87be 3f2a 313d 2f50 1cbd 698a a4bd
00000040: 3f76 94bd a3bf 81be 4497 443c 1343 34be
00000050: fff1 3ebe d723 54be 2c95 febd 2dc3 f6bd
00000060: 95b6 28bd f21b 64be 721d 813d 0080 34bd
00000070: 92ed 4abe 7ee3 21be 408c 5abe 0efd a0bd
00000080: 5a27 c83d 1a8e babd 62c3 44be 3c22 9bbd
00000090: cdd8 7e3c a49e 03be 306d 63be 9929 d9bd
000000a0: 8062 03be 46ca 0cbe e7a5 ebbd c6c1 15bd
000000b0: 4817 cc39 45fe d2bd 5d49 bbbd 4d6b 92bd
000000c0: 8b08 fdbd 9387 51bd 701f e9bc 2148 6ebe
000000d0: 8691 c8bd 0858 11be 146d b4bd 0515 e9bd
000000e0: df20 aabd 95b8 fc3c 4954 44bd f593 8dbd
000000f0: 2046 a4bd bacf 15be 27bd bbbd 1d8a 28be

model.5.running_mean f4 [64]
-0.5880835 -0.31276494 0.13049838 -0.4712502 -0.8519727 -0.706705 -0.5716133 0.0550455
-0.36107802 0.07569161 0.55950445 -0.5033296 -0.8911784 0.24328916 0.9961381 0.6299347
0.15184602 -0.84654444 -0.2846788 -0.40831757 -0.7631046 -0.3454233 -0.67099684 0.62564015
-0.08692251 -0.74468017 0.9093314 0.014083376 -0.86633044 -0.6158491 -0.44213593 -0.61565876
1.2229666 0.46112725 0.33240047 -0.7497723 -0.28677365 -0.035097986 -0.7675599 0.22759461
0.7277465 0.74132997 0.530996 0.843813 0.20835139 -0.67364246 -0.3320365 -0.107065484
-0.6247763 -0.2854773 0.94477516 -0.36885482 -0.935875 -0.60405433 -0.7836198 0.42610675
-1.0464339 0.0829759 -0.78686064 -0.12948875 0.39359957 -0.93062043 -0.21978001 -0.5736093
00000000: a48c 16bf ba22 a0be 5ea1 053e b547 f1be
00000010: e21a 5abf 9eea 34bf 4055 12bf 6477 613d
00000020: 38df b8be 3404 9b3d af3b 0f3f 35da 00bf
00000030: 4524 64bf cb20 793e e802 7f3f 6743 213f
00000040: 867d 1b3e 23b7 58bf 6bc1 91be 000f d1be
00000050: d35a 43bf 53db b0be 73c6 2bbf f429 203f
00000060: 6e04 b2bd 5ca3 3ebf f1c9 683f f6bd 663c
00000070: d5c7 5dbf 49a8 1dbf a45f e2be d09b 1dbf
00000080: 2b8a 9c3f df18 ec3e 6530 aa3e 14f1 3fbf
00000090: ffd3 92be e8c2 0fbd ce7e 44bf 900e 693e
000000a0: 984d 3a3f cdc7 3d3f 5bef 073f 2104 583f
000000b0: 115a 553e d573 2cbf b000 aabe 2645 dbbd
000000c0: 57f1 1fbf 152a 92be c9dc 713f 8ada bcbe
000000d0: 8195 6fbf 4ea3 1abf 4f9b 48bf aa2a da3e
000000e0: 8cf1 85bf 45ef a93d b36f 49bf b398 04be
000000f0: e285 c93e 243d 6ebf 030e 61be 0fd8 12bf

model.5.running_var f4 [64]
0.93436944 0.72405285 0.904006 0.57441396 0.92507666 0.7569882 0.4915453 0.52976155
0.70646423 0.48040426 0.65436435 0.5265578 0.72599036 0.8024381 1.017874 0.85029835
0.84775954 0.8558499 0.6089211 0.7197806 0.6514152 0.28959063 0.8657542 0.2763141
0.45346314 0.5259341 0.545391 0.494478 0.7795126 0.6395654 0.60850674 0.60520244
0.8243575 0.37837964 0.6113559 0.75650185 0.5232512 0.3972407 1.1039233 0.79896337
0.6249847 0.5189321 0.76017374 0.6661978 0.38720733 0.8733287 0.65514076 0.7982029
0.90165174 0.32361624 0.84774977 0.5051999 0.9962299 0.78036493 1.0086212 0.63563555
0.9701658 0.60328805 1.1565927 0.6872642 0.6219493 1.0472842 0.5783798 0.6738095
00000000: d632 6f3f 875b 393f f06c 673f cb0c 133f
00000010: d3d1 6c3f fbc9 413f d3ab fb3e 749e 073f
00000020: d7da 343f 8cf7 f53e 6c84 273f 7ecc 063f
00000030: 81da 393f 956c 4d3f b249 823f 27ad 593f
00000040: c506 593f fb18 5b3f 41e2 1b3f 8b43 383f
00000050: 26c3 263f 3945 943e 11a2 5d3f 0b79 8d3e
00000060: 522c e83e 9ea3 063f bf9e 0b3f 382c fd3e
00000070: 238e 473f 8fba 233f 19c7 1b3f 8cee 1a3f
00000080: 1809 533f faba c13e d281 1c3f 1baa 413f
00000090: caf3 053f 2263 cb3e 5c4d 8d3f dd88 4c3f
000000a0: fffe 1f3f bcd8 043f bf9a 423f f08b 2a3f
000000b0: 0a40 c63e 7892 5f3f 4eb7 273f 0657 4c3f
000000c0: a6d2 663f 07b1 a53e 2106 593f c854 013f
000000d0: ec08 7f3f ffc5 473f 801a 813f 03b9 223f
000000e0: c95c 783f 1671 1a3f 3b0b 943f 8cf0 2f3f
000000f0: 1238 1f3f 690d 863f b310 143f c87e 2c3f

model.8.weight f4 [32, 64]
0.069476575 0.068719566 -0.021962473 -0.10554047 -0.16587368 -0.06684353 0.015335152 0.03673164
0.13405155 -0.0037656864 -0.006497655 -0.047335926 -0.11721999 0.09147372 -0.13174385 -0.018044095
0.045237087 -0.1209857 0.008226109 -0.09618928 -0.13720027 0.077512704 -0.0036048451 -0.007865282
0.009449757 0.03182443 0.004644327 -0.04682229 -0.10441527 -0.07211884 -0.12671281 -0.012122781
-0.0047426843 0.0672673 -0.10199233 0.065146424 0.005847637 0.006969725 0.11056298 -0.066233896
-0.0724202 0.05471463 0.0039913277 -0.01104271 -0.055802986 0.055182606 0.02338031 -0.04888791
-0.058775473 0.058383856 -0.11044691 0.08876943 -0.044345595 0.07431488 -0.1889865 -0.037932295
-0.16456084 -0.084022045 -0.20020713 0.0014626982 -0.039676975 -0.2608652 -0.015594199 0.05332704
0.15873177 -0.047052346 0.080624536 -0.082126066 -0.15152207 -0.03986218 0.11561506 0.10590708
0.061163887 0.054082356 -0.10599011 0.03705385 -0.0036874716 0.11254634 -0.008616409 -0.07366192
-0.08796751 -0.04351442 -0.0897449 -0.052636273 -0.1303193 -0.04356145 0.08034917 -0.03669121
0.120773084 0.0981593 -0.009572146 -0.08417284 -0.016718041 0.064135514 -0.089341044 -0.1083894
0.035623312 0.098835334 -0.070475094 -0.059468277 0.06566654 0.059810985 -0.010748613 0.057314336
0.021232788 0.058716197 -0.066966556 -0.077128395 0.05154099 -0.019456724 -0.13484477 -0.11095036
-0.051826887 0.09543792 -0.083263665 -0.016402654 0.0059638377 0.09936444 -0.18622096 0.0609888
-0.11819123 0.0070819655 -0.20267802 -0.0325705 -0.084025726 -0.10614943 -0.1568861 -0.0045491266
0.13902073 0.011761723 0.03690914 -0.16150983 -0.044839215 0.08104779 0.13170883 0.023184514
0.19769499 0.055229243 -0.11297855 0.08417528 0.015238464 0.107930526 -0.12867814 -0.052532423
0.011404151 0.06708588 0.032686908 -0.18898234 -0.07901734 -0.0064520584 -0.016491072 -0.037061855
0.087571524 0.058818366 -0.0061929733 -0.088694125 -0.063419156 0.08708696 -0.05853439 -0.046791732
0.066147946 0.0824849 -0.0020949533 0.030575175 0.07436817 0.08488194 -0.12526833 -0.012364434
-0.09761701 0.077375576 -0.053548276 0.07019556 -0.037813243 -0.0584961 0.04987161 -0.13370958
0.11336553 0.046576273 -0.016968574 -0.112197064 0.06749171 0.051025372 -0.14803953 0.026990997
-0.006513528 -0.03341772 -0.17321888 -0.1697747 -0.11489682 -0.14981689 -0.09549672 -0.03987419
0.14957206 0.0579008 -0.050109066 -0.07060206 -0.076441646 0.0012718098 0.18898371 0.044894632
0.02309447 0.13938187 -0.01639891 -0.06721061 0.014022821 0.00028182755 -0.02444064 0.036532685
-0.089939915 -0.03346028 0.0063672345 -0.08852251 -0.1431582 0.04542241 0.13263328 0.07291338
0.06677489 0.004930197 0.008087815 0.0492117 -0.14843018 0.040127438 -0.099499695 -0.14923298
-0.016315253 0.16529737 -0.11701545 0.07584701 0.017458286 -0.010619741 -0.07142979 -0.013753264
-0.06549483 0.016927423 -0.04988441 -0.16513972 -0.020596718 -0.027816584 -0.1536578 0.04993081
-0.059958536 0.042535793 -0.04174911 -0.056909494 0.058924492 -0.0037209042 -0.21259902 0.061454736
-0.09491191 -0.016756322 -0.02971469 0.019787513 -0.010792957 -0.1299552 -0.03409547 0.04143733
00000000: bc49 8e3d d8bc 8c3d a5ea b3bc 9a25 d8bd
00000010: cada 29be 43e5 88bd 4a40 7b3c eb73 163d
00000020: cf44 093e bcc9 76bb 48ea d4bb 51e3 41bd
00000030: 0911 f0bd 9356 bb3d dce7 06be 36d1 93bc
00000040: 864a 393d 5ac7 f7bd cdc6 063c e3fe c4bd
00000050: 3a7e 0cbe fbbe 9e3d 443f 6cbb 62dd 00bc
00000060: 27d3 1a3c 555a 023d 702f 983b bbc8 3fbd
00000070: acd7 d5bd 0bb3 93bd 01c1 01be a19e 46bc
00000080: 8568 9bbb 70c3 893d 5be1 d0bd 7d6b 853d
00000090: 899d bf3b 4a62 e43b d86e e23d a3a5 87bd
000000a0: 0b51 94bd 731c 603d afc9 823b 7cec 34bc
000000b0: ac91 64bd 2807 623d 1088 bf3c b03e 48bd
000000c0: 8dbe 70bd e923 6f3d fd31 e2bd bfcc b53d
000000d0: baa3 35bd 6632 983d ad85 41be e55e 1bbd
000000e0: a382 28be c013 acbd 1903 4dbe 02b8 bf3a
000000f0: 5384 22bd 2090 85be d07e 7fbc 746d 5a3d
00000100: 958a 223e f6b9 40bd 7a1e a53d b631 a8bd
00000110: 9a28 1bbe 8646 23bd 97c7 ec3d d0e5 d83d
00000120: fc86 7a3d 7685 5d3d 5811 d9bd c7c5 173d
00000130: 82a9 71bb b27e e63d d72b 0dbc 10dc 96bd
00000140: 4f28 b4bd 2d3c 32bd 2dcc b7bd 2299 57bd
00000150: 6c72 05be 7e6d 32bd 1b8e a43d 8649 16bd
00000160: e157 f73d be07 c93d 7ed4 1cbc cf62 acbd
00000170: 46f4 88bc 7b59 833d 70f8 b6bd 43fb ddbd
00000180: c0e9 113d 2e6a ca3d 3f55 90bd 0295 73bd
00000190: 2e7c 863d 5dfc 743d f31a 30bc 70c2 6a3d
000001a0: 62f0 ad3c 6580 703d c325 89bd 7ef5 9dbd
000001b0: a51c 533d b563 9fbc bf14 0abe f139 e3bd
000001c0: 6e48 54bd f574 c33d 2486 aabd dc5e 86bc
000001d0: 4c6c c33b 957f cb3d b5b0 3ebe 64cf 793d
000001e0: 3e0e f2bd d50f e83b d48a 4fbe a568 05bd
000001f0: ae15 acbd df64 d9bd c0a6 20be d710 95bb
00000200: 735b 0e3e 3eb4 403c 0a2e 173d d562 25be
00000210: 53a9 37bd 62fc a53d aede 063e 73ed bd3c
00000220: 8e70 4a3e 0f38 623d 4c61 e7bd 1764 ac3d
00000230: c0aa 793c ae0a dd3d 34c4 03be 3d2c 57bd
00000240: 7ad8 3a3c 5264 893d b5e2 053d 9684 41be
00000250: d8d3 a1bd ca6b d3bb 4918 87bc 2cce 17bd
00000260: b358 b33d 87eb 703d 6dee cabb 44a5 b5bd
00000270: e7e1 81bd a65a b23d c2c1 6fbd b0a8 3fbd
00000280: 9378 873d d8ed a83d 7c4b 09bb ca78 fa3c
00000290: 574e 983d 95d6 ad3d 5746 00be 3294 4abc
000002a0: 6deb c7bd 1677 9e3d 7055 5bbd b1c2 8f3d
000002b0: 0fe2 1abd 9b99 6fbd 2c46 4c3d 2aeb 08be
000002c0: 302c e83d c3c6 3e3d ae01 8bbc 93c7 e5bd
000002d0: 1839 8a3d fbff 503d ad97 17be 391c dd3c
000002e0: 6f6f d5bb 05e1 08bd 4a60 31be 6bd9 2dbe
000002f0: 064f ebbd 9969 19be c993 c3bd 1e53 23bd
00000300: 6b29 193e 6429 6d3d 2a3f 4dbd d097 90bd
00000310: 708d 9cbd dbb2 a63a f284 413e 6fe3 373d
00000320: 9d30 bd3c 1fba 0e3e 0257 86bc b7a5 89bd
00000330: f9bf 653c 41c2 9339 bd37 c8bc 4ca3 153d
00000340: 6b32 b8bd a60d 09bd 3ca4 d03b 4a4b b5bd
00000350: 1098 12be d90c 3a3d 05d1 073e 9c53 953d
00000360: 46c1 883d 7d8d a13b c182 043c 3592 493d
00000370: 15fe 17be ab5c 243d 7fc6 cbbd 88d0 18be
00000380: 91a7 85bc b743 293e cca5 efbd ad55 9b3d
00000390: ae04 8f3c 6cfe 2dbc c849 92bd 5f55 61bc
000003a0: 2722 86bd 61ab 8a3c 9853 4cbd 631a 29be
000003b0: 73ba a8bc 9bdf e3bc 7858 1dbe 4084 4c3d
000003c0: 1597 75bd 033a 2e3d 1d01 2bbd ee19 69bd
000003d0: cf5a 713d 6ada 73bb 8fb3 59be f6b7 7b3d
000003e0: 2d61 c2bd 8e44 89bc 396c f3bc 6c19 a23c
000003f0: f1d4 30bc fa12 05be b1a7 0bbd 31ba 293d

model.8.bias f4 [32]
1.955749e-06 3.7293512e-06 -5.491389e-06 -7.955201e-08 1.8889948e-06 2.0294328e-06 1.3976441e-07 -4.9979775e-08
-9.245049e-07 7.4942545e-07 9.98728e-07 1.5655947e-06 -2.784564e-06 2.3259724e-07 -2.8300537e-06 -4.1201906e-06
3.225258e-06 1.938508e-06 1.2909753e-06 -6.9300554e-06 -1.8873437e-06 1.9761455e-06 -9.098588e-07 1.2056688e-06
-1.3623114e-06 1.6310408e-06 4.3404803e-08 2.5276206e-06 3.3130797e-07 2.7311535e-06 -4.3027978e-07 6.014586e-07
00000000: 833f 0336 c445 7a36 ac42 b8b6 2ed6 aab3
00000010: 5e89 fd35 6431 0836 2612 1634 58a9 56b3
00000020: 7e2b 78b5 202c 4935 080c 8635 6d21 d235
00000030: 72de 3ab6 d8bf 7934 f4eb 3db6 2b40 8ab6
00000040: 8371 5836 5017 0236 9345 ad35 b988 e8b6
00000050: a350 fdb5 ec9d 0436 053d 74b5 77d2 a135
00000060: aad8 b6b5 23ea da35 166c 3a33 31a0 2936
00000070: 9fde b134 dc48 3736 3401 e7b4 ec73 2135

model.9.weight f4 [32]
1.0110674 1.0870749 1.1511075 0.9178067 1.0514579 0.8760365 1.0018584 0.8902152
1.100576 1.0220497 0.92076874 0.87635976 1.1465123 1.1198088 1.0969862 1.0038241
1.0506 1.08623 0.95554686 1.0318463 0.90438575 1.1017326 0.9630703 1.0591263
1.1535177 1.0872858 0.92986673 1.0054506 0.9910128 1.1053823 1.170573 1.036623
00000000: a86a 813f 4525 8b3f 7e57 933f 61f5 6a3f
00000010: 2c96 863f ee43 603f e53c 803f 25e5 633f
00000020: addf 8c3f 86d2 823f 80b7 6b3f 1d59 603f
00000030: eac0 923f e555 8f3f 0b6a 8c3f 4f7d 803f
00000040: 107a 863f 9609 8b3f b89e 743f 8a13 843f
00000050: d385 673f 9305 8d3f c68b 763f 7391 873f
00000060: 78a6 933f 2e2c 8b3f bf0b 6e3f 9bb2 803f
00000070: 04b3 7d3f 2b7d 8d3f 56d5 953f 10b0 843f

model.9.bias f4 [32]
-0.03136399 0.1478559 0.1759114 0.072075166 0.10945588 0.008272937 0.14070626 0.0791712
-0.01171841 0.059402633 0.0762734 0.012021148 -0.037785787 0.3758715 -0.02976236 0.04937396
0.089160435 -0.024591308 -0.017055314 0.06766567 -0.064036794 -0.03864421 -0.074289665 0.08164687
0.19943348 -0.045481637 -0.07975298 0.16184063 0.058637 0.19286874 0.16602099 0.13017088
00000000: 8777 00bd 8967 173e 1e22 343e 259c 933d
00000010: 682a e03d 368b 073c 4d15 103e 8324 a23d
00000020: 93fe 3fbc 2d50 733d 3a35 9c3d 59f4 443c
00000030: 45c5 1abd 3b72 c03e 31d0 f3bc 593c 4a3d
00000040: bf99 b63d b673 c9bc 96b7 8bbc 4c94 8a3d
00000050: b925 83bd 6449 1ebd 2e25 98bd 7936 a73d
00000060: 4a38 4c3e f44a 3abd 8855 a3bd 8db9 253e
00000070: 5a2d 703d 627f 453e 6801 2a3e 844b 053e

model.9.running_mean f4 [32]
-0.42440248 -0.2537622 -0.13196419 -0.20565937 -0.07009815 0.08284081 0.22538975 0.15512945
-0.20826532 -0.3067913 0.5265807 -0.03696459 -0.629872 0.257336 -0.6693768 -0.24978296
-0.26217183 -0.4347465 -0.094298914 -0.2296501 0.20634447 -0.5551402 -0.57013273 -0.27027526
-0.13859932 -0.6306825 -0.5484932 0.15014629 0.3491435 0.3832711 0.024795605 0.101523496
00000000: 484b d9be 1eed 81be 9f21 07be 5f98 52be
00000010: 9e8f 8fbd 71a8 a93d 92cc 663e 41da 1e3e
00000020: 8143 55be c013 9dbe fecd 063f 2f68 17bd
00000030: 4b3f 21bf 8bc1 833e 475c 2bbf 1bc7 7fbe
00000040: 633b 86be 1897 debe ca1f c1bd 6529 6bbe
00000050: f74b 533e ab1d 0ebf 38f4 11bf 8561 8abe
00000060: fbec 0dbe 6974 21bf 0d6a 0cbf f3bf 193e
00000070: f0c2 b23e 1c3c c43e 2720 cb3c 8deb cf3d

model.9.running_var f4 [32]
0.34883878 0.5252192 0.5039031 0.3902035 0.49244213 0.3330921 0.5981432 0.3785843
0.4505007 0.3737923 0.44622284 0.32303178 0.52306646 0.48846638 0.5114141 0.42257276
0.28616822 0.51891595 0.41279188 0.3564715 0.38180673 0.63506526 0.5617313 0.47931084
0.4581715 0.37285483 0.52491 0.6481164 0.6131146 0.29097542 0.4073986 0.3272856
00000000: ff9a b23e c474 063f cbff 003f c1c8 c73e
00000010: 6021 fc3e 0c8b aa3e ea1f 193f cdd5 c13e
00000020: 07a8 e63e b461 bf3e 5277 e43e 6c64 a53e
00000030: afe7 053f 4418 fa3e 09ec 023f 755b d83e
00000040: a484 923e add7 043f 7559 d33e 6f83 b63e
00000050: 2c7c c33e a393 223f 9fcd 0f3f 3b68 f53e
00000060: 7495 ea3e d4e6 be3e 8060 063f f5ea 253f
00000070: 14f5 1c3f bbfa 943e 8d96 d03e fa91 a73e

model.12.weight f4 [4, 32]
0.14293739 0.14735714 0.07340884 0.1485024 0.11697462 -0.12473639 0.20638236 0.11218117
0.050226122 -0.20444837 0.014715483 0.07480541 0.091483854 0.1103018 0.069930576 -0.33771884
0.06980676 0.09533749 0.06200184 -0.29808983 -0.027567683 0.19502886 -0.007552007 0.017363098
0.143762 0.1096563 0.032923736 0.13185357 0.09173539 0.10815125 -0.014181795 0.10083014
0.12437795 0.14195788 0.09317387 0.1168799 -0.42666733 0.15956506 -0.12681909 -0.22818154
-0.44087967 0.07404662 -0.13628209 -0.16164453 0.09651877 0.06561234 0.09690568 0.03825289
0.21892208 -0.3267082 0.13969576 0.14508381 0.14440584 0.04284554 -0.20634481 -0.303928
-0.38965175 0.1711724 -0.034093592 -0.17329685 -0.32594755 -0.3224404 -0.48811093 0.09733532
-0.2001999 -0.05959752 -0.016745135 -0.024111174 -0.07453233 0.080825545 0.21387336 0.075234085
-0.13878942 0.14805737 0.08748862 0.11306652 -0.42442748 0.07598028 -0.388721 -0.018757574
0.1679888 -0.18911463 -0.21179324 0.09601072 -0.062490053 -0.20500267 -0.25346535 0.21019867
0.21602958 -0.39376056 -0.18547778 0.14788957 0.13779226 0.14770843 0.04788847 0.057184014
-0.09952766 -0.40739438 -0.46290737 -0.16866317 0.14968656 -0.15615846 -0.2275049 0.074099936
0.10006745 -0.08795124 -0.20280178 -0.1218933 0.08886108 -0.5374565 0.025107572 0.0072261565
-0.23886439 0.14081563 -0.010320292 0.07579779 -0.085481025 0.18847524 0.08698267 0.1840165
0.21129285 0.051506825 0.135004 -0.29664686 -0.10488966 0.066468745 0.017495565 -0.37034765
00000000: 2e5e 123e cae4 163e 6057 963d 0311 183e
00000010: 6490 ef3d cb75 ffbd e655 533e 3ebf e53d
00000020: e8b9 4d3d ea5a 51be 3619 713c 9433 993d
00000030: e35b bb3d e9e5 e13d c337 8f3d 7ce9 acbe
00000040: d9f6 8e3d 4d40 c33d a4f5 7d3d 3b9f 98be
00000050: 9fd5 e1bc a5b5 473e d476 f7bb 0e3d 8e3c
00000060: 5936 133e 7b93 e03d 0adb 063d 9f04 073e
00000070: c4df bb3d 677e dd3d c25a 68bc 0880 ce3d
00000080: deb9 fe3d 685d 113e f1d1 be3d bb5e ef3d
00000090: 2474 dabe 0665 233e dddc 01be 6ca8 69be
000000a0: fbba e1be c1a5 973d 888d 0bbe 2586 25be
000000b0: a2ab c53d c35f 863d 7c76 c63d 10af 1c3d
000000c0: 1c2d 603e 4c46 a7be 680c 0f3e da90 143e
000000d0: 20df 133e ce7e 2f3d 0e4c 53be 739c 9bbe
000000e0: 6f80 c7be d147 2f3e b9a5 0bbd bb74 31be
000000f0: 99e2 a6be e816 a5be ade9 f9be be57 c73d
00000100: 3401 4dbe 871c 74bd 182d 89bc cc84 c5bc
00000110: 68a4 98bd dd87 a53d 9e01 5b3e 5414 9a3d
00000120: d01e 0ebe 5a9c 173e 3c2d b33d 6b8f e73d
00000130: 8f4e d9be 8d9b 9b3d 7006 c7be 7ca9 99bc
00000140: 4205 2c3e 44a7 41be 54e0 58be 45a1 c43d
00000150: 92f5 7fbd 38ec 51be 36c6 81be 523e 573e
00000160: dc36 5d3e fc9a c9be e3ed 3dbe 5d70 173e
00000170: 6a19 0d3e e140 173e b326 443d c939 6a3d
00000180: 28d5 cbbd ff95 d0be 3202 edbe 0ab6 2cbe
00000190: 6f47 193e 01e8 1fbe 0bf7 68be b5c1 973d
000001a0: 2af0 cc3d c81f b4bd 45ab 4fbe 32a3 f9bd
000001b0: ccfc b53d c096 09bf 65ae cd3c 65c9 ec3b
000001c0: de98 74be f931 103e 7116 29bc df3b 9b3d
000001d0: ad10 afbd a7ff 403e f823 b23d d26e 3c3e
000001e0: 275d 583e d2f8 523d 7d3e 0a3e 19e2 97be
000001f0: 64d0 d6bd c420 883d dc52 8f3c 359e bdbe

model.12.bias f4 [4]
-0.16575584 -0.08476496 0.13370128 0.14317356
00000000: e6bb 29be 4099 adbd fde8 083e 179c 123e
